projects/mnist_cnn.pt (torch, 23260 bytes, 6 tensors)

net.0.weight f4 [16, 1, 3, 3]
0.82946914 0.8696415 -0.54043436 1.5076971 1.4630145 -0.46664685 1.7291667 1.3573978
0.11393623 0.7775937 1.5284446 1.3661054 0.005850204 0.87733066 0.32205415 -0.15388651
0.44277284 -0.84755033 -0.78643674 0.709218 0.6507999 -0.30838606 0.53888637 0.53525895
0.53738046 1.1100636 1.1206138 1.3439586 0.77533865 0.49239978 1.0392805 0.9483329
0.6330801 1.2922554 1.1135334 1.4500253 1.2771848 0.9522318 0.49171087 0.6452709
0.25003287 0.897996 1.084121 1.1165528 1.2668593 -0.53072536 -0.6033668 -0.114431694
-0.6238591 -0.06056037 -0.6433564 -0.4109433 -0.52841574 -0.5157298 -0.9747024 -1.5119276
-1.216415 0.64399415 0.29921114 0.81594884 1.2388382 0.94987404 0.76501757 -0.4106805
-1.3683879 -1.3728019 0.746459 0.21887477 0.30748656 0.5302642 0.8320318 0.57829976
1.4963189 1.4358345 0.633375 0.77555037 1.1244743 0.17039204 1.027221 0.6027184
-1.1420735 -0.740017 -0.4240928 -0.6193895 -0.68862814 -0.6196605 -0.6329259 1.384267
0.8550783 0.7129481 -0.3188631 -0.39783683 -0.32285768 -0.37994018 -0.16665713 -0.5421668
-0.28102195 -0.050083455 -0.6575205 -0.49564466 -1.4198076 -1.1039414 0.28905135 0.72108215
0.4456118 0.78420585 0.50671303 0.68470794 -0.20176195 -0.34657392 -0.37578833 -0.43761355
-0.10351111 -0.21386153 -0.40315655 -0.4891859 -0.12595122 1.6178209 1.3098 0.7227173
0.43754134 0.87441176 1.3317487 -0.99687904 0.9598807 1.5563357 0.08792849 -0.598856
-0.3057107 0.009623305 -0.39755005 -0.4993228 -0.563893 -0.5645229 -0.5738644 0.12867492
0.6610336 1.1198024 -1.165865 0.6052968 1.3628241 -1.0894151 0.17447436 0.5146226
00000000: 1758 543f d3a0 5e3f e859 0abf 38fc c03f
00000010: 0f44 bb3f 56ec eebe 5655 dd3f 36bf ad3f
00000020: 6657 e93d 6110 473f 13a4 c33f 8bdc ae3f
00000030: 11b3 bf3b be98 603f 48e4 a43e 6d94 1dbe
00000040: 1fb3 e23e 0ff9 58bf eb53 49bf 508f 353f
00000050: d29a 263f c7e4 9dbe 75f4 093f bb06 093f
00000060: c491 093f 9016 8e3f 4670 8f3f d606 ac3f
00000070: 987c 463f d31b fc3e 2507 853f f2c5 723f
00000080: 8a11 223f a068 a53f 4388 8e3f 6e9a b93f
00000090: cb7a a33f 77c5 733f 87c1 fb3e 7930 253f
000000a0: 4f04 803e 11e3 653f 7ac4 8a3f 34eb 8e3f
000000b0: 7228 a23f 9edd 07bf 3f76 1abf 2a5b eabd
000000c0: 3bb5 1fbf 270e 78bd 01b3 24bf 2967 d2be
000000d0: 4146 07bf de06 04bf 1986 79bf d886 c1bf
000000e0: 7db3 9bbf cddc 243f 3432 993e 06e2 503f
000000f0: 4092 9e3f f22a 733f 31d8 433f b744 d2be
00000100: 5627 afbf f9b7 afbf f017 3f3f b520 603e
00000110: e16e 9d3e 65bf 073f 0900 553f 740b 143f
00000120: 6187 bf3f 6dc9 b73f dd24 223f 788a 463f
00000130: c6ee 8f3f 407b 2e3e fa7b 833f c14b 1a3f
00000140: 772f 92bf c171 3dbf b122 d9be 4f90 1ebf
00000150: ef49 30bf 12a2 1ebf 6f07 22bf a92f b13f
00000160: 69e6 5a3f c483 363f 0642 a3be 45b1 cbbe
00000170: 9a4d a5be 8587 c2be 2ba8 2abe 72cb 0abf
00000180: 1ce2 8fbe 4f24 4dbd 4353 28bf 23c5 fdbe
00000190: 41bc b5bf f44d 8dbf 8afe 933e d798 383f
000001a0: 3b27 e43e b7c1 483f f2b7 013f 0549 2f3f
000001b0: af9a 4ebe 2372 b1be 5467 c0be e20e e0be
000001c0: a2fd d3bd 84fe 5abe 896a cebe 9376 fabe
000001d0: 5bf9 00be c114 cf3f 87a7 a73f 0004 393f
000001e0: 6b05 e03e 73d9 5f3f be76 aa3f 7733 7fbf
000001f0: beba 753f 0236 c73f da13 b43d a04e 19bf
00000200: 1d86 9cbe 11ab 1d3c ae8b cbbe 3da7 ffbe
00000210: 4b5b 10bf 9384 10bf c7e8 12bf 5cc3 033e
00000220: 7f39 293f af55 8f3f 103b 95bf bbf4 1a3f
00000230: 0571 ae3f f471 8bbf 68a9 323e 4fbe 033f

net.0.bias f4 [16]
1.1309583 1.3586078 0.56829566 1.002415 0.999485 0.026513986 0.43647134 0.016781677
1.2446338 0.41744283 0.5371659 0.18026671 0.71717495 0.92356163 0.3204551 0.76103175
00000000: 3ec3 903f dce6 ad3f d37b 113f 224f 803f
00000010: 40de 7f3f dc33 d93c 2c79 df3e ba79 893c
00000020: 2950 9f3f 11bb d53e b483 093f d697 383e
00000030: c798 373f 896e 6c3f b112 a43e fad2 423f

net.3.weight f4 [32, 16, 3, 3]
0.026498983 0.015996557 0.049373236 0.05697615 0.0036605843 0.04677746 0.035828155 -0.04225842
-0.017781794 0.05329146 -0.08063776 -0.008117916 0.017853191 -0.08330708 0.013927048 -0.09910286
0.028287958 -0.035381544 -0.08948796 -0.037477903 -0.018989574 -0.07714493 -0.012616782 -0.0905809
-0.042924162 0.010134752 0.012233445 0.014387233 0.01702678 0.047975007 -0.03541802 -0.085021086
-0.028897095 -0.027180545 -0.033925585 -0.072618 -0.02418002 0.06322176 -0.06382541 -0.088597074
-0.025459062 -0.058125872 0.015419634 -0.065375626 -0.04051906 -0.06611192 -0.007857979 -0.08999985
0.04317085 0.013843372 -0.06977419 -0.10182722 -0.09477661 -0.094167426 -0.038160995 0.056215204
-0.027568214 -0.011880499 -0.094340205 -0.021512598 -0.057903722 0.057077743 0.0069670444 0.01572285
0.012619154 0.040733095 -0.07583088 0.056018364 -0.037716493 -0.07261742 -0.014641808 -0.0377115
-0.04304959 0.029483948 -0.04421375 -0.01969649 0.029400313 0.047931943 -0.017432585 -0.02366232
0.029652817 -0.07423208 0.0049778614 -0.017491905 -0.095704176 0.047254432 0.0028226713 -0.00068853906
-0.01590271 -0.06721767 0.050767858 -0.0022798548 -0.02795187 -0.04548767 0.036560394 0.053889077
-0.029934563 0.044772964 0.045353252 -0.103115514 0.03017313 -0.06892693 -0.002289098 -0.046102125
-0.02012551 0.043864463 0.019834777 0.06643905 -0.09966033 -0.104101196 -0.087411836 0.047134936
-0.09016981 0.037205834 -0.02739203 -0.04937631 -0.08983771 -0.038301762 -0.06321266 -0.05391189
-0.023009608 -0.06236077 -0.07463077 0.051393714 0.036356628 0.05078042 -0.012264915 0.028009113
0.055241987 -0.020111253 0.050399255 0.060845703 -0.012625899 -0.012306964 0.0035291389 -0.09373714
-0.058202457 -0.056999777 -0.047013883 -0.024830429 -0.019070167 -0.05892672 0.021382995 1.1124612e-05
-0.95202315 -0.017023658 0.30085084 -0.32223523 0.028204277 0.24536124 -0.05487461 0.20538521
0.4687627 -0.89399356 -0.07746016 0.10443306 -0.50220436 0.059104577 0.16677329 -0.19258328
0.16835767 0.3169331 -0.42477766 0.25445482 0.07013182 -0.43601325 0.28335392 0.2244869
0.08024586 0.5246182 0.36009115 -0.6502235 0.041377828 0.18618573 -0.3594519 -0.021705514
0.16833034 -0.010106578 0.2397867 0.35045248 -0.64687854 0.08410798 0.09222949 -0.30626354
0.02063815 0.14017439 0.062224936 0.2500257 0.35533398 0.1709006 0.05631535 0.21707068
0.06594601 -0.08730278 -0.031824917 0.028039537 -0.06672426 -0.14539641 -0.6839984 -0.48941648
-0.19788393 -0.35413367 -0.46548766 -0.12567249 0.161183 0.08057185 0.06372003 -1.02027
-0.69356626 -0.28443098 -0.49221018 -0.72539496 -0.5070886 0.1462191 -0.334438 -0.4276658
-1.1732912 -0.15223211 0.20769988 -0.45684236 0.04298067 0.2756569 -0.13591665 0.17924659
0.38133356 -0.047039084 -0.25899062 -0.15444593 -0.041830335 -0.28938067 -0.38020962 0.108990364
-0.12355227 -0.2930041 0.11790415 0.057999797 0.24330291 0.07286975 -0.06486265 0.039286327
0.04799562 -0.0996302 -0.050517816 -0.8447943 -0.72392863 -0.3450659 -0.48988724 -0.68176514
-0.4323508 0.1709076 -0.24403463 -0.1598049 0.06997395 -0.043741 0.19140933 -0.12203094
00000000: 6514 d93c 360b 833c 973b 4a3d d35f 693d
00000010: 6ae6 6f3b b999 3f3d 8bc0 123d 2a17 2dbd
00000020: 20ab 91bc 2548 5a3d 6925 a5bd 0201 05bc
00000030: db40 923c e79c aabd 462e 643c 71f6 cabd
00000040: 26bc e73c 3dec 10bd 7745 b7bd 6e82 19bd
00000050: 0690 9bbc 29fe 9dbd 9fb6 4ebc 7b82 b9bd
00000060: 3fd1 2fbd 3b0c 263c ca6e 483c 6eb8 6b3c
00000070: bf7b 8b3c 7181 443d 7c12 11bd 891f aebd
00000080: 9ab9 ecbc bca9 debc 8ef5 0abd bfb8 94bd
00000090: 2d15 c6bc 697a 813d e6b6 82bd 6272 b5bd
000000a0: 868f d0bc 6515 6ebd a2a2 7c3c a8e3 85bd
000000b0: 50f7 25bd b065 87bd c1be 00bc d751 b8bd
000000c0: ebd3 303d 50cf 623c c5e5 8ebd ca8a d0bd
000000d0: 3d1a c2bd dada c0bd b44e 1cbd ea41 663d
000000e0: bcd6 e1bc 6da6 42bc 7035 c1bd 303b b0bc
000000f0: 742c 6dbd 5aca 693d ce4b e43b 35cd 803c
00000100: 91c0 4e3c bfd7 263d 384d 9bbd 8373 653d
00000110: 9c7c 1abd 71b8 94bd 32e4 6fbc 6077 1abd
00000120: c454 30bd 5288 f13c 7a19 35bd 895a a1bc
00000130: edd8 f03c 4954 443d c8ce 8ebc 7bd7 c1bc
00000140: 77ea f23c fd06 98bd 541d a33b 2f4b 8fbc
00000150: 8d00 c4bd dd8d 413d 91fc 383b 137f 34ba
00000160: 6646 82bc 6ba9 89bd f5f1 4f3d 9e69 15bb
00000170: 52fb e4bc 4751 3abd 5ac0 153d cbba 5c3d
00000180: 5439 f5bc db63 373d 55c4 393d 3a2e d3bd
00000190: a42d f73c 9029 8dbd b104 16bb 95d5 3cbd
000001a0: 41de a4bc 39ab 333d 8b7c a23c 3211 883d
000001b0: b71a ccbd 0233 d5bd fa04 b3bd 9010 413d
000001c0: f3aa b8bd 2565 183d 4065 e0bc d03e 4abd
000001d0: d5fc b7bd 4fe2 1cbd a475 81bd b7d2 5cbd
000001e0: a57e bcbc 026e 7fbd 04d8 98bd 3782 523d
000001f0: b0ea 143d 21ff 4f3d c8f2 48bc 5e73 e53c
00000200: 6c45 623d 5bc0 a4bc 736f 4e3d 5839 793d
00000210: dcdc 4ebc 26a3 49bc 2049 673b 42f9 bfbd
00000220: b365 6ebd 9978 69bd a191 40bd 2f69 cbbc
00000230: 0a39 9cbc 255d 71bd 642b af3c d8a3 3a37
00000240: cab7 73bf 3375 8bbc 1f09 9a3e 04fc a4be
00000250: a80c e73c fa3f 7b3e 33c4 60bd 8050 523e
00000260: aa01 f03e c3dc 64bf 6fa3 9ebd 00e1 d53d
00000270: 7790 00bf a417 723d 9ec6 2a3e 8d34 45be
00000280: f465 2c3e 0e45 a23e 757c d9be e747 823e
00000290: 46a1 8f3d 213d dfbe c413 913e e5df 653e
000002a0: f157 a43d 614d 063f de5d b83e 0c75 26bf
000002b0: cc7b 293d 79a7 3e3e 140a b8be c3cf b1bc
000002c0: ca5e 2c3e 0f96 25bc a58a 753e 826e b33e
000002d0: d599 25bf ce40 ac3d d1e2 bc3d 93ce 9cbe
000002e0: 5611 a93c e089 0f3e 93df 7e3d 5e03 803e
000002f0: 56ee b53e 9100 2f3e edaa 663d c747 5e3e
00000300: b40e 873d cdcb b2bd d85a 02bd 2cb3 e53c
00000310: bba6 88bd cce2 14be 851a 2fbf cc94 fabe
00000320: 16a2 4abe 0251 b5be 6654 eebe 4ab0 00be
00000330: 280d 253e db02 a53d a67f 823d 3598 82bf
00000340: 8f8d 31bf f0a0 91be f902 fcbe 7cb3 39bf
00000350: 8fd0 01bf 76ba 153e 753b abbe 03f7 dabe
00000360: 682e 96bf bce2 1bbe 47af 543e 3ee7 e9be
00000370: 800c 303d e722 8d3e bc2d 0bbe 6b8c 373e
00000380: 273e c33e 0eac 40bd 6b9a 84be 1327 1ebe
00000390: 4956 2bbd b429 94be d6aa c2be 5736 df3d
000003a0: f908 fdbd a204 96be bb77 f13d 3291 6d3d
000003b0: 6624 793e bc3c 953d b6d6 84bd b3ea 203d
000003c0: 0e97 443d eb0a ccbd c5eb 4ebd 7044 58bf
000003d0: 6353 39bf 7aac b0be 80d2 fabe 2988 2ebf
000003e0: 165d ddbe 6702 2f3e 37e4 79be e5a3 23be
000003f0: 814e 8f3d c329 33bd cf00 443e 5ceb f9bd

net.3.bias f4 [32]
0.023206394 -0.015631624 0.023786625 -0.0041075717 0.022109753 0.092177354 0.13219282 -0.26621607
0.09299923 -0.041705508 -0.061087284 -0.13269973 0.03872331 -0.060010336 0.019985987 -0.002865167
0.00797176 -0.05381693 -0.049002804 -0.011492262 -0.25440952 -0.07282008 -0.021563137 0.12384168
0.1864517 -0.3041767 0.00821482 0.084739365 0.024801495 -0.114817 -0.09123785 0.114701755
00000000: 561b be3c e40d 80bc 2bdc c23c cf98 86bb
00000010: 831f b53c 7bc7 bc3d 8e5d 073e 794d 88be
00000020: 6176 be3d 65d3 2abd a936 7abd 70e2 07be
00000030: 559c 1e3d 66cd 75bd a7b9 a33c 87c5 3bbb
00000040: fc9b 023c 246f 5cbd 2ab7 48bd 0a4a 3cbc
00000050: f741 82be b222 95bd 2da5 b0bc b5a0 fd3d
00000060: 32ed 3e3e 0cbd 9bbe 7497 063c d58b ad3d
00000070: 812c cb3c 2d25 ebbd e9da babd c1e8 ea3d

net.7.weight f4 [10, 32]
0.083771124 0.5710973 -0.15601568 -0.4876784 0.012339555 -0.09096911 0.28552938 -0.17502718
-0.52163726 -0.2460516 -0.77029395 0.080369815 -0.22818026 0.11607139 0.5899888 0.23130535
0.096081 -0.10386914 0.15425356 0.0906104 0.04253169 -0.1020044 0.4964229 -0.037920367
-0.22786887 0.29010648 -0.08507278 -0.4419848 -0.6341807 -0.5214622 0.10247673 -0.7306226
-0.03664184 0.3819268 0.31739944 0.26452702 -0.37159964 0.2046138 -0.46856827 -0.124122106
0.2203515 -0.4289252 -0.20169857 1.0067674 0.2845218 0.11349634 0.28865895 0.14533322
-0.30923426 0.15431257 -0.0541012 -0.38227037 0.27838007 -0.0024222247 -0.23999651 0.22649029
0.2140419 0.11187238 -0.23801564 0.3607609 -0.122472435 -0.6263373 0.09935834 0.28380546
-0.07219328 -0.16039619 0.16022253 0.1536032 0.020016411 0.021094402 0.035636745 0.68742627
-0.33838153 -0.09539946 -0.8076306 -0.123446316 -0.26902458 -0.10721987 -0.07951518 0.17152089
-0.0900297 0.14662966 -0.35454386 -0.011858424 0.17927054 -0.042966925 0.121370055 -0.11407051
-0.11366366 0.1107662 -0.020195058 -0.023004422 -0.37577486 -0.19992204 0.25755167 0.3115929
-0.02250376 -0.643813 -0.26574472 0.3953177 0.05436727 -0.21409157 0.012576496 -0.05684879
-0.059572723 0.09960746 0.56859154 -0.46660206 0.44045064 -0.07214665 -0.9530397 -0.13343167
0.05116558 0.0021701502 -0.9747281 0.048336614 0.29081905 0.084806375 -0.84157896 0.2848504
-0.08801017 0.15564895 -0.028419744 0.45998222 -0.011569261 0.7799508 -0.2729037 -0.18359302
0.048631784 0.00734904 -0.20496345 -0.0982349 0.04188991 0.14423235 0.02822338 0.70820135
0.1254968 -0.14894827 1.8528194 -0.07265338 0.2986131 0.018380867 -0.05842015 0.46527797
0.026679933 -0.043373555 -0.5136824 -0.28465882 -0.30032855 -0.36904395 0.4301447 0.018137475
-0.5751267 -0.66077983 -0.138856 0.3648753 -0.018120576 -0.47311977 -0.001132726 0.23013537
0.13750985 0.07396691 -0.105360866 0.06743489 -0.07574188 -0.4458046 -0.0074175242 -0.30009407
0.3980244 0.26066902 0.6049888 0.5816193 -0.32565007 0.0727275 0.07473951 -0.025571961
-0.084462546 -0.019838963 0.53521264 0.11663281 0.21269499 0.29623002 -0.91951907 -0.4083441
0.15280238 0.24705796 -0.14456362 0.087455876 0.38340062 0.51331407 -0.2633432 0.111937195
-0.059891373 0.039668772 0.1798533 -0.20315094 -0.045103908 -0.20866148 -0.0074870056 0.4466027
0.05767159 0.104159705 -0.46215612 0.87103266 -0.30073637 -0.02804208 0.21582937 -0.15998556
-0.096538834 0.17319432 0.8416747 0.3969026 0.5019942 -0.659217 0.38138485 -0.62092566
0.2594858 -0.2522717 0.18637612 -0.32461473 0.4435919 -0.76493764 0.27405867 0.40049616
0.1341999 -0.21037292 0.019928783 0.020229274 -0.1909734 0.5616942 -0.3638341 -0.22420345
0.03943561 -0.32556406 -0.15092005 -1.0932212 0.08855174 0.004423866 -0.24102207 0.11730771
-0.1882394 0.027330328 -0.23392138 -0.43386772 -0.25022233 0.7625107 0.41877958 0.35344908
-0.0917985 0.98612356 -0.025377706 -0.106576905 0.10767766 0.47700426 -0.15577672 -0.1561408
00000000: 3290 ab3d 6f33 123f 93c2 1fbe fcb0 f9be
00000010: d82b 4a3c 034e babd e830 923e 533a 33be
00000020: 058a 05bf f3f4 7bbe fc31 45bf ee98 a43d
00000030: 16a8 69be d6b6 ed3d 8209 173f 4fdb 6c3e
00000040: 1ec6 c43d 58b9 d4bd a5f4 1d3e f291 b93d
00000050: b635 2e3d afe7 d0bd 242b fe3e 6352 1bbd
00000060: 7556 69be d688 943e a33a aebd d54b e2be
00000070: ab59 22bf 8c7e 05bf 52df d13d 150a 3bbf
00000080: c115 16bd e98b c33e 2e82 a23e 1670 873e
00000090: 4f42 bebe 4886 513e 2ee8 efbe bb33 febd
000000a0: d3a3 613e 159c dbbe 128a 4ebe c1dd 803f
000000b0: d7ac 913e c570 e83d 1bcb 933e 3bd2 143e
000000c0: f453 9ebe 1d04 1e3e 3899 5dbd f1b8 c3be
000000d0: d587 8e3e 30be 1ebb a5c1 75be 12ed 673e
000000e0: cd2d 5b3e 591d e53d 5fba 73be a7b5 b83e
000000f0: d4d2 fabd a457 20bf 637c cb3d f34e 913e
00000100: 12da 93bd e63e 24be 6011 243e 284a 1d3e
00000110: 75f9 a33c 2bce ac3c d6f7 113d 2bfb 2f3f
00000120: 5840 adbe cb60 c3bd e1c0 4ebf 6cd1 fcbd
00000130: 97bd 89be 1796 dbbd dbd8 a2bd 2ca3 2f3e
00000140: 7e61 b8bd 1626 163e c686 b5be d649 42bc
00000150: b292 373e 16fe 2fbd dd90 f83d cd9d e9bd
00000160: 7ec8 e8bd 64d9 e23d 1b70 a5bc c573 bcbc
00000170: 9065 c0be 5db8 4cbe d0dd 833e 1b89 9f3e
00000180: ce59 b8bc eed0 24bf b10f 88be 1567 ca3e
00000190: 37b0 5e3d d23a 5bbe a60d 4e3c 47da 68bd
000001a0: 8702 74bd fffe cb3d 378f 113f 77e6 eebe
000001b0: bf82 e13e 9fc1 93bd 69fa 73bf 50a2 08be
000001c0: 0093 513d 1439 0e3b c887 79bf 9dfc 453d
000001d0: 3ce6 943e f7ae ad3d b871 57bf e9d7 913e
000001e0: ad3e b4bd 7062 1f3e 86d0 e8bc ca82 eb3e
000001f0: ff8c 3dbc dbaa 473f 09ba 8bbe cfff 3bbe
00000200: 1f32 473d 37d0 f03b f0e1 51be 612f c9bd
00000210: c194 2b3d a5b1 133e b834 e73c af4c 353f
00000220: 3c82 003e e585 18be 3029 ed3f 4ccb 94bd
00000230: d1e3 983e 7993 963c f849 6fbd ea38 ee3e
00000240: e08f da3c 78a8 31bd b180 03bf cdbe 91be
00000250: aac4 99be 54f3 bcbe ed3b dc3e 0b95 943c
00000260: 813b 13bf de28 29bf 4430 0ebe efd0 ba3e
00000270: 9a71 94bc c13c f2be fa77 94ba 9ba8 6b3e
00000280: 62cf 0c3e f77b 973d 70c7 d7bd 4e1b 8a3d
00000290: 8f1e 9bbd 8040 e4be b40e f3bb eea5 99be
000002a0: dbc9 cb3e 6976 853e 8ce0 1a3f 01e5 143f
000002b0: 9bbb a6be 28f2 943d 0711 993d 4a7c d1bc
000002c0: b3fa acbd 5285 a2bc b203 093f 2fdd ee3d
000002d0: b7cc 593e 76ab 973e 9a65 6bbf 7a12 d1be
000002e0: 3a78 1c3e c3fc 7c3e 7c08 14be 111c b33d
000002f0: 164d c43e 8d68 033f ebd4 86be 543f e53d
00000300: a850 75bd b97b 223d 772b 383e cd06 50be
00000310: e0be 38bd 5bab 55be 8e55 f5bb 1ca9 e43e
00000320: 0c39 6c3d af51 d53d ba9f ecbe fffb 5e3f
00000330: 1efa 99be 81b8 e5bc 6002 5d3e 41d3 23be
00000340: 27b6 c5bd da59 313e fe77 573f d136 cb3e
00000350: b182 003f 72c2 28bf e044 c33e fcf4 1ebf
00000360: 53db 843e c229 81be 62d9 3e3e e733 a6be
00000370: 7a1e e33e f4d2 43bf 6b51 8c3e d50d cd3e
00000380: b36b 093e 006c 57be b041 a33c ddb7 a53c
00000390: 888e 43be 31cb 0f3f 7748 babe 9795 65be
000003a0: 3c87 213d 55b0 a6be c98a 1abe acee 8bbf
000003b0: 9d5a b53d 14f6 903b 7dce 76be 063f f03d
000003c0: d4c1 40be dae3 df3c 1689 6fbe e923 debe
000003d0: 241d 80be e733 433f 476a d63e 47f7 b43e
000003e0: da00 bcbd 9872 7c3f e8e4 cfbc fe44 dabd
000003f0: 1b86 dc3d e739 f43e ef83 1fbe 60e3 1fbe

net.7.bias f4 [10]
-0.07536663 -0.11213151 0.004329279 0.008262963 0.13508487 -0.09027227 -0.026920361 0.08664767
-0.04413202 -0.082340986
00000000: d259 9abd 35a5 e5bd a0dc 8d3b 6161 073c
00000010: b053 0a3e abe0 b8bd 1788 dcbc 5574 b13d
00000020: c7c3 34bd 64a2 a8bd
